lightning_logs/version_4/checkpoints/epoch=29-step=60.ckpt (torch, 10056 bytes, 19 tensors)

we.weight f4 [5, 2]
000000 62 b5 2c bf e5 7b 87 bd 85 1d ce 3f 2b ad 2b 40
       -0.6746427 -0.06615428 1.6102759 2.6824443
000010 7b a7 d3 be e4 74 b7 bc 5d 91 82 40 50 f1 c6 bf
       -0.41338715 -0.022394605 4.0802445 -1.5542393
000020 11 fe a9 bf 48 f7 14 c0
       -1.328066 -2.3275928

pe.pe f4 [6, 2]
000000 00 00 00 00 00 00 80 3f a4 6a 57 3f 41 51 0a 3f
       0.0 1.0 0.84147096 0.54030234
000010 b7 c7 68 3f 33 11 d5 be c3 81 10 3e 26 70 7d bf
       0.9092974 -0.41614684 0.14112 -0.9899925
000020 cf bd 41 bf 30 55 27 bf 10 7c 75 bf 2c 3c 91 3e
       -0.7568025 -0.6536436 -0.9589243 0.2836622

self_attention.W_q.weight f4 [2, 2]
000000 5d ea cc bf a4 78 0e bf 16 08 aa bf a6 57 e5 3f
       -1.6009022 -0.55652833 -1.3283718 1.7917373

self_attention.W_k.weight f4 [2, 2]
000000 5e 5d 9f bf d4 52 c9 bf 41 d0 20 3f 44 60 00 c0
       -1.2450368 -1.5728402 0.6281777 -2.0058756

self_attention.W_v.weight f4 [2, 2]
000000 9e 36 0c 40 d4 f0 84 bf bb b4 c9 bd 93 25 a1 bd
       2.1908336 -1.0385995 -0.09848925 -0.07868495

fc_layer.weight f4 [5, 2]
000000 f2 b1 84 3f e5 dd c2 3f f9 24 0e c0 60 cf 07 40
       1.0366805 1.5223967 -2.2210066 2.1220322
000010 32 37 85 3f 67 47 c7 3f 08 e0 99 bf b4 23 40 c0
       1.0407469 1.5568665 -1.2021494 -3.0021791
000020 66 9e b3 3f 15 96 fe bf
       1.4032714 -1.9889551

fc_layer.bias f4 [5]
000000 d3 df 68 bd b1 60 44 bf 7e 3d 69 be bc 51 3a bf
       -0.05685408 -0.7671004 -0.22777364 -0.72780967
000010 d1 3a 1d 40
       2.4567149

exp_avg f4 [5, 2]
000000 a4 05 45 ba 6f c1 dc 3a 4a e0 06 3b ee 6a 4f bb
       -0.0007515794 0.0016842316 0.0020580464 -0.0031649428
000010 3b 5b 99 3a c8 af ed b9 ea df 27 b9 7e 55 8c 37
       0.0011700162 -0.0004533513 -0.00016009776 1.6729111e-05
000020 bf 64 6c 3a 49 49 25 3a
       0.0009017698 0.0006305171

exp_avg_sq f4 [5, 2]
000000 e2 5e 0b 39 1d a7 ba 38 ec b6 04 38 fe 24 1c 38
       0.0001329142 8.9002984e-05 3.164161e-05 3.722775e-05
000010 9a 2c 47 39 5f 24 9b 38 a8 81 0a 37 8d ef 08 37
       0.00018994734 7.3977506e-05 8.255629e-06 8.162006e-06
000020 1e 64 46 39 97 0b 62 38
       0.00018920048 5.3893393e-05

exp_avg f4 [2, 2]
000000 34 59 e2 39 a4 ca f6 b8 7a 90 c3 38 ac 2d 70 b9
       0.0004317254 -0.00011767939 9.3252354e-05 -0.00022905198

exp_avg_sq f4 [2, 2]
000000 1f 84 c8 37 29 d1 44 39 8e 1b 2b 37 9b 5a be 38
       2.3903382e-05 0.00018769935 1.019881e-05 9.0767826e-05

exp_avg f4 [2, 2]
000000 0b 58 ee 39 29 52 02 38 03 f6 b8 b8 30 35 b9 39
       0.00045460495 3.1070933e-05 -8.819627e-05 0.00035325577

exp_avg_sq f4 [2, 2]
000000 46 eb 15 38 c8 77 1a 38 c1 01 b7 38 f8 34 78 38
       3.5743484e-05 3.6828016e-05 8.726447e-05 5.917714e-05

exp_avg f4 [2, 2]
000000 89 43 ee 39 c0 fc 42 3b 2a ee 1d 3b 19 80 da 3a
       0.00045445215 0.0029752702 0.0024098256 0.0016670256

exp_avg_sq f4 [2, 2]
000000 f6 32 76 38 a7 79 16 38 24 d1 e3 38 d3 2f 0b 39
       5.869843e-05 3.5876084e-05 0.00010863159 0.00013273889

exp_avg f4 [5, 2]
000000 cc 3d a4 bc da ef 5b bc 89 80 c7 3a 0f e2 35 ba
       -0.020048998 -0.013423884 0.0015220802 -0.00069382874
000010 66 c9 89 3c d2 6d 24 3c cf ca a7 39 d0 2a 8b 3a
       0.016819667 0.010035949 0.00032003826 0.0010617618
000020 a5 d0 b5 3a a1 eb 45 3b
       0.0013871385 0.003020026

exp_avg_sq f4 [5, 2]
000000 b1 a6 5f 3c 29 98 61 3b 35 b0 13 39 d4 50 46 38
       0.013650582 0.003442297 0.00014084655 4.7282156e-05
000010 c0 27 63 3c 48 fd 5b 3b a8 d0 7c 38 84 13 64 38
       0.013864458 0.0033567715 6.027581e-05 5.437761e-05
000020 cd e1 2a 39 c9 3d 3c 39
       0.0001629658 0.00017952094

exp_avg f4 [5]
000000 b0 7b 7d bb f8 e8 cd b9 56 06 8e 3b 60 a2 df 39
       -0.003867846 -0.00039274222 0.0043342514 0.00042654853
000010 36 24 03 ba
       -0.0005002649

exp_avg_sq f4 [5]
000000 00 c9 2c 3a a0 df 13 37 6d 9d 23 3a b9 82 0c 38
       0.00065912306 8.8139495e-06 0.0006241415 3.3500346e-05
000010 d8 61 8b 38
       6.646261e-05
